self.with_multi = False
self.with_multiview = False
cls_branch = [Linear(in_features=256, out_features=256, bias=True), LayerNorm((256,), eps=1e-05, elementwise_affine=True), ReLU(inplace=True), Linear(in_features=256, out_features=256, bias=True), LayerNorm((256,), eps=1e-05, elementwise_affine=True), ReLU(inplace=True), Linear(in_features=256, out_features=10, bias=True)]
fc_cls = Sequential(
  (0): Linear(in_features=256, out_features=256, bias=True)
  (1): LayerNorm((256,), eps=1e-05, elementwise_affine=True)
  (2): ReLU(inplace=True)
  (3): Linear(in_features=256, out_features=256, bias=True)
  (4): LayerNorm((256,), eps=1e-05, elementwise_affine=True)
  (5): ReLU(inplace=True)
  (6): Linear(in_features=256, out_features=10, bias=True)
)
cls_branch ModuleList(
  (0): Sequential(
    (0): Linear(in_features=256, out_features=256, bias=True)
    (1): LayerNorm((256,), eps=1e-05, elementwise_affine=True)
    (2): ReLU(inplace=True)
    (3): Linear(in_features=256, out_features=256, bias=True)
    (4): LayerNorm((256,), eps=1e-05, elementwise_affine=True)
    (5): ReLU(inplace=True)
    (6): Linear(in_features=256, out_features=10, bias=True)
  )
  (1): Sequential(
    (0): Linear(in_features=256, out_features=256, bias=True)
    (1): LayerNorm((256,), eps=1e-05, elementwise_affine=True)
    (2): ReLU(inplace=True)
    (3): Linear(in_features=256, out_features=256, bias=True)
    (4): LayerNorm((256,), eps=1e-05, elementwise_affine=True)
    (5): ReLU(inplace=True)
    (6): Linear(in_features=256, out_features=10, bias=True)
  )
  (2): Sequential(
    (0): Linear(in_features=256, out_features=256, bias=True)
    (1): LayerNorm((256,), eps=1e-05, elementwise_affine=True)
    (2): ReLU(inplace=True)
    (3): Linear(in_features=256, out_features=256, bias=True)
    (4): LayerNorm((256,), eps=1e-05, elementwise_affine=True)
    (5): ReLU(inplace=True)
    (6): Linear(in_features=256, out_features=10, bias=True)
  )
  (3): Sequential(
    (0): Linear(in_features=256, out_features=256, bias=True)
    (1): LayerNorm((256,), eps=1e-05, elementwise_affine=True)
    (2): ReLU(inplace=True)
    (3): Linear(in_features=256, out_features=256, bias=True)
    (4): LayerNorm((256,), eps=1e-05, elementwise_affine=True)
    (5): ReLU(inplace=True)
    (6): Linear(in_features=256, out_features=10, bias=True)
  )
  (4): Sequential(
    (0): Linear(in_features=256, out_features=256, bias=True)
    (1): LayerNorm((256,), eps=1e-05, elementwise_affine=True)
    (2): ReLU(inplace=True)
    (3): Linear(in_features=256, out_features=256, bias=True)
    (4): LayerNorm((256,), eps=1e-05, elementwise_affine=True)
    (5): ReLU(inplace=True)
    (6): Linear(in_features=256, out_features=10, bias=True)
  )
  (5): Sequential(
    (0): Linear(in_features=256, out_features=256, bias=True)
    (1): LayerNorm((256,), eps=1e-05, elementwise_affine=True)
    (2): ReLU(inplace=True)
    (3): Linear(in_features=256, out_features=256, bias=True)
    (4): LayerNorm((256,), eps=1e-05, elementwise_affine=True)
    (5): ReLU(inplace=True)
    (6): Linear(in_features=256, out_features=10, bias=True)
  )
)
reg_branches ModuleList(
  (0): Sequential(
    (0): Linear(in_features=256, out_features=256, bias=True)
    (1): ReLU()
    (2): Linear(in_features=256, out_features=256, bias=True)
    (3): ReLU()
    (4): Linear(in_features=256, out_features=10, bias=True)
  )
  (1): Sequential(
    (0): Linear(in_features=256, out_features=256, bias=True)
    (1): ReLU()
    (2): Linear(in_features=256, out_features=256, bias=True)
    (3): ReLU()
    (4): Linear(in_features=256, out_features=10, bias=True)
  )
  (2): Sequential(
    (0): Linear(in_features=256, out_features=256, bias=True)
    (1): ReLU()
    (2): Linear(in_features=256, out_features=256, bias=True)
    (3): ReLU()
    (4): Linear(in_features=256, out_features=10, bias=True)
  )
  (3): Sequential(
    (0): Linear(in_features=256, out_features=256, bias=True)
    (1): ReLU()
    (2): Linear(in_features=256, out_features=256, bias=True)
    (3): ReLU()
    (4): Linear(in_features=256, out_features=10, bias=True)
  )
  (4): Sequential(
    (0): Linear(in_features=256, out_features=256, bias=True)
    (1): ReLU()
    (2): Linear(in_features=256, out_features=256, bias=True)
    (3): ReLU()
    (4): Linear(in_features=256, out_features=10, bias=True)
  )
  (5): Sequential(
    (0): Linear(in_features=256, out_features=256, bias=True)
    (1): ReLU()
    (2): Linear(in_features=256, out_features=256, bias=True)
    (3): ReLU()
    (4): Linear(in_features=256, out_features=10, bias=True)
  )
)
build PETRTransformer
NMSFreeCoder
self.with_multi = False
self.with_multiview = False
cls_branch = [Linear(in_features=256, out_features=256, bias=True), LayerNorm((256,), eps=1e-05, elementwise_affine=True), ReLU(inplace=True), Linear(in_features=256, out_features=256, bias=True), LayerNorm((256,), eps=1e-05, elementwise_affine=True), ReLU(inplace=True), Linear(in_features=256, out_features=10, bias=True)]
fc_cls = Sequential(
  (0): Linear(in_features=256, out_features=256, bias=True)
  (1): LayerNorm((256,), eps=1e-05, elementwise_affine=True)
  (2): ReLU(inplace=True)
  (3): Linear(in_features=256, out_features=256, bias=True)
  (4): LayerNorm((256,), eps=1e-05, elementwise_affine=True)
  (5): ReLU(inplace=True)
  (6): Linear(in_features=256, out_features=10, bias=True)
)
cls_branch ModuleList(
  (0): Sequential(
    (0): Linear(in_features=256, out_features=256, bias=True)
    (1): LayerNorm((256,), eps=1e-05, elementwise_affine=True)
    (2): ReLU(inplace=True)
    (3): Linear(in_features=256, out_features=256, bias=True)
    (4): LayerNorm((256,), eps=1e-05, elementwise_affine=True)
    (5): ReLU(inplace=True)
    (6): Linear(in_features=256, out_features=10, bias=True)
  )
  (1): Sequential(
    (0): Linear(in_features=256, out_features=256, bias=True)
    (1): LayerNorm((256,), eps=1e-05, elementwise_affine=True)
    (2): ReLU(inplace=True)
    (3): Linear(in_features=256, out_features=256, bias=True)
    (4): LayerNorm((256,), eps=1e-05, elementwise_affine=True)
    (5): ReLU(inplace=True)
    (6): Linear(in_features=256, out_features=10, bias=True)
  )
  (2): Sequential(
    (0): Linear(in_features=256, out_features=256, bias=True)
    (1): LayerNorm((256,), eps=1e-05, elementwise_affine=True)
    (2): ReLU(inplace=True)
    (3): Linear(in_features=256, out_features=256, bias=True)
    (4): LayerNorm((256,), eps=1e-05, elementwise_affine=True)
    (5): ReLU(inplace=True)
    (6): Linear(in_features=256, out_features=10, bias=True)
  )
  (3): Sequential(
    (0): Linear(in_features=256, out_features=256, bias=True)
    (1): LayerNorm((256,), eps=1e-05, elementwise_affine=True)
    (2): ReLU(inplace=True)
    (3): Linear(in_features=256, out_features=256, bias=True)
    (4): LayerNorm((256,), eps=1e-05, elementwise_affine=True)
    (5): ReLU(inplace=True)
    (6): Linear(in_features=256, out_features=10, bias=True)
  )
  (4): Sequential(
    (0): Linear(in_features=256, out_features=256, bias=True)
    (1): LayerNorm((256,), eps=1e-05, elementwise_affine=True)
    (2): ReLU(inplace=True)
    (3): Linear(in_features=256, out_features=256, bias=True)
    (4): LayerNorm((256,), eps=1e-05, elementwise_affine=True)
    (5): ReLU(inplace=True)
    (6): Linear(in_features=256, out_features=10, bias=True)
  )
  (5): Sequential(
    (0): Linear(in_features=256, out_features=256, bias=True)
    (1): LayerNorm((256,), eps=1e-05, elementwise_affine=True)
    (2): ReLU(inplace=True)
    (3): Linear(in_features=256, out_features=256, bias=True)
    (4): LayerNorm((256,), eps=1e-05, elementwise_affine=True)
    (5): ReLU(inplace=True)
    (6): Linear(in_features=256, out_features=10, bias=True)
  )
)
reg_branches ModuleList(
  (0): Sequential(
    (0): Linear(in_features=256, out_features=256, bias=True)
    (1): ReLU()
    (2): Linear(in_features=256, out_features=256, bias=True)
    (3): ReLU()
    (4): Linear(in_features=256, out_features=10, bias=True)
  )
  (1): Sequential(
    (0): Linear(in_features=256, out_features=256, bias=True)
    (1): ReLU()
    (2): Linear(in_features=256, out_features=256, bias=True)
    (3): ReLU()
    (4): Linear(in_features=256, out_features=10, bias=True)
  )
  (2): Sequential(
    (0): Linear(in_features=256, out_features=256, bias=True)
    (1): ReLU()
    (2): Linear(in_features=256, out_features=256, bias=True)
    (3): ReLU()
    (4): Linear(in_features=256, out_features=10, bias=True)
  )
  (3): Sequential(
    (0): Linear(in_features=256, out_features=256, bias=True)
    (1): ReLU()
    (2): Linear(in_features=256, out_features=256, bias=True)
    (3): ReLU()
    (4): Linear(in_features=256, out_features=10, bias=True)
  )
  (4): Sequential(
    (0): Linear(in_features=256, out_features=256, bias=True)
    (1): ReLU()
    (2): Linear(in_features=256, out_features=256, bias=True)
    (3): ReLU()
    (4): Linear(in_features=256, out_features=10, bias=True)
  )
  (5): Sequential(
    (0): Linear(in_features=256, out_features=256, bias=True)
    (1): ReLU()
    (2): Linear(in_features=256, out_features=256, bias=True)
    (3): ReLU()
    (4): Linear(in_features=256, out_features=10, bias=True)
  )
)
